CardioCare-main/app/src/main/ml/heart_model_2.tflite (tflite, 44520 bytes, 7 tensors)

sequential_3/dense_14/BiasAdd/ReadVariableOp f4 [16]
000000 00 00 00 00 22 6d d0 3b 9d 81 d5 3b 03 40 fc bb
       0.0 0.006360666 0.0065156952 -0.0076980605
000010 74 dc b1 3c 00 00 00 00 00 00 00 00 00 00 00 00
       0.021711566 0.0 0.0 0.0
000020 7f 5c a8 3c e2 2f cd 3a 00 00 00 00 d8 07 69 3c
       0.020551918 0.0015654529 0.0 0.0142230615
000030 83 cb cc 3b 00 00 00 00 38 e5 db 3c 32 cb d9 3b
       0.0062498464 0.0 0.026842698 0.006646537

sequential_3/dense_13/BiasAdd/ReadVariableOp f4 [64]
000000 ec e7 a5 bc 13 fd bb 3c ac 7f 92 bc 16 78 e5 3c
       -0.02025219 0.022947824 -0.017883144 0.028011363
000010 bc af 1c bd e0 b8 94 bc 18 32 22 ba 17 10 bb 3c
       -0.03825353 -0.018154562 -0.0006187274 0.02283482
000020 08 14 87 3c db f3 cd 3b 82 f7 bf bc ea 5c 01 3c
       0.016489044 0.0062851734 -0.02343345 0.007895688
000030 8a 14 82 bc 92 35 eb bc 03 5d 49 3d 2d 60 9a ba
       -0.015878934 -0.028712068 0.04916097 -0.001177793
000040 1d 7d c4 3b d0 4e c7 bb ab 43 04 bb ee 58 73 3b
       0.00599636 -0.006082393 -0.0020181935 0.0037131864
000050 bc 20 15 3d de f2 ba 3b 4a 72 07 bd 60 1a 05 3d
       0.03640817 0.0057052216 -0.03306798 0.032495856
000060 5c 94 a3 3b d9 e3 9a 3b df 6d 62 3c 52 93 04 bd
       0.004992051 0.0047268686 0.013820141 -0.032367058
000070 90 c1 70 3c fe 16 c8 3b 08 32 1d 3d 80 df 55 3c
       0.014694586 0.0061062565 0.03837779 0.013053775
000080 57 68 00 3c 6a b5 81 3c 9d 40 ba 3c 40 4d a0 3c
       0.007837377 0.015833575 0.022735888 0.019568086
000090 ba 75 54 bb 2c ef f7 3b 0d ec 82 3b 81 b5 e6 b9
       -0.0032418803 0.0075663533 0.0039954246 -0.0004400425
0000a0 88 86 fa 3b 53 87 bf bb 3f 6b 13 bc f8 f8 e3 3b
       0.007645432 -0.0058449893 -0.008997737 0.0069571696
0000b0 82 d9 97 bc 9b 98 53 3c da 08 4f bc f0 4b 65 bc
       -0.018536333 0.012914802 -0.012636388 -0.013995156
0000c0 c1 1f 3d 3c e3 59 6f bc 8e 4e 1f 3c 80 c5 00 3c
       0.011543215 -0.014608833 0.009723319 0.007859588
0000d0 72 07 64 bc 22 42 5c 3a 74 28 97 3c c7 b9 33 bc
       -0.013917791 0.00084021885 0.018451907 -0.010969586
0000e0 e9 67 e2 bc 44 f2 8d 3c ba 71 46 bc d5 53 2c bd
       -0.027637439 0.017327435 -0.012112075 -0.042072136
0000f0 eb e8 7a 3b f0 8c aa bc 6b af e4 3b 16 b7 0f 3c
       0.0038285803 -0.020819157 0.0069789193 0.008771678

sequential_3/dense_12/BiasAdd/ReadVariableOp f4 [128]
000000 d5 2f f8 3b e8 46 85 bc 8e 06 0c 3c 6d bb a3 3c
       0.0075740614 -0.016269162 0.008546485 0.019986833
000010 cb 6f e8 3c f8 52 8e 3c bb 80 5a bc df 6b 84 3d
       0.02837362 0.017373547 -0.013336356 0.06465887
000020 18 4c 6d 3d 2d 6f 10 3d 78 55 7a 3d 6f d8 82 3c
       0.057933897 0.035262275 0.061116666 0.015972344
000030 90 8e 3b 3d e5 59 5e 3b 2e b4 cd 3c fb 97 6b 3d
       0.045790255 0.0033928093 0.02511033 0.057517987
000040 2c 3f 95 3d 8a 6f 8a bc 0c e0 bc 3c dc 18 99 3c
       0.0728744 -0.01689889 0.023056053 0.018688612
000050 bd 60 02 bc bd 5a 19 bc 24 c6 01 bd b5 7e 91 3d
       -0.0079576345 -0.009360013 -0.031683102 0.071042456
000060 23 8d 63 3d 40 21 71 3d 1c 02 0f bc b5 91 85 3d
       0.05555452 0.0588696 -0.00872853 0.06521932
000070 7a b1 3b 3d 73 dc 5a 3b 10 de 95 3c 4f 06 3e 3d
       0.04582355 0.0033395558 0.018294364 0.046392735
000080 db 94 0d 3c 74 23 8b 3c 2b e4 10 3d 2e bd e8 3b
       0.008641447 0.016984679 0.035373848 0.00710263
000090 e4 96 69 3d c4 1a ab bc 81 6e c0 3c f8 df 4c 3c
       0.057028666 -0.020886786 0.023490192 0.01250457
0000a0 51 f5 e0 3c 16 0f 9f 3d 2c 20 6b 3d ac dd 87 3d
       0.027460726 0.07766549 0.05740373 0.066340774
0000b0 2c 2f 4e 3d 07 7f 38 3d d6 b1 e0 3d ba d2 96 3d
       0.050337955 0.045043018 0.109714195 0.07364412
0000c0 58 54 c2 3c 44 30 c4 bb 65 b9 ab 3d 8b 52 fd 3c
       0.023721859 -0.005987199 0.083849706 0.030923149
0000d0 6b 24 17 3c 03 e0 90 3d 2e 8e 74 3c 2e db 94 3d
       0.009224991 0.07073977 0.014926476 0.07268368
0000e0 80 89 97 3c 3a 45 d0 3c 53 f5 46 3d e1 02 9e 3d
       0.018498182 0.025423635 0.048573803 0.07715393
0000f0 14 25 bb 3c 73 39 da bc c0 a1 46 bc 29 88 b7 3d
       0.022844829 -0.026638722 -0.012123525 0.08961517
000100 b0 42 51 3d ab 08 3d 3d cd 4d b5 3b bb df b2 3d
       0.05108899 0.046150845 0.005532956 0.087340795
000110 8b cf 65 3c ab 8c 31 3d 58 c9 e0 3c 95 0d 7e 3d
       0.014026533 0.043347042 0.027439758 0.06202467
000120 0c 02 f3 3c a5 06 24 3d f3 d1 32 bd dc a7 8f bc
       0.029664062 0.0400454 -0.043657254 -0.017536096
000130 51 89 89 bc 70 a3 a9 3c 7d ed 4c 3d 01 cf 6f bc
       -0.01678911 0.020707816 0.050031174 -0.014636756
000140 3c 88 2f bd 67 a2 37 3d fd e9 f9 3c c0 2b e9 bb
       -0.042854533 0.044832613 0.030507082 -0.007115811
000150 19 02 bf 3c 5e ed 87 3d ed 6a 44 3d 10 c5 9b 3d
       0.02331643 0.06637071 0.047953535 0.07605946
000160 f8 d9 d3 3c 85 f5 0c bd 5c ee 8e bb 4f 28 cd 3c
       0.025860772 -0.034413833 -0.0043619107 0.025043635
000170 cb 95 80 3d b1 22 9a 3d b9 de c1 3b 96 cc 88 3c
       0.06278571 0.07526148 0.005916443 0.016699117
000180 6c b9 a5 3c 62 00 72 3d 6f 44 89 3c 6f 15 48 bb
       0.020230018 0.059082396 0.016756264 -0.0030530354
000190 6f ab 22 3d 39 60 f9 3c 7e c6 10 3d ec a2 fb bc
       0.039714273 0.03044139 0.035345547 -0.030717336
0001a0 10 c2 91 bc 4b be 68 3d 1a 77 e5 3a f0 f5 19 3d
       -0.017792732 0.056822103 0.0017506809 0.03758806
0001b0 0f b0 38 bc 9c 82 72 3d 41 b6 00 3d 0a d3 36 3d
       -0.011272444 0.05920659 0.03142381 0.044634856
0001c0 1f 61 24 3d a2 b6 b9 3c bc a1 c1 3d 0f 15 84 3d
       0.040131684 0.022670094 0.094546765 0.06449329
0001d0 ec d5 33 bd 30 42 ae 3c 72 be 46 bc 90 23 21 bd
       -0.043905184 0.021271795 -0.012130367 -0.039340556
0001e0 07 39 ca 3d 85 47 8c 3d eb 40 27 3d 01 01 c9 bb
       0.09874158 0.06849579 0.040833395 -0.006134153
0001f0 86 9d 0b 3d 7a cc 6d 3d 5f 50 34 3d 40 50 cc 3c
       0.034085773 0.058056332 0.04402196 0.02494061

sequential_3/dense_12/MatMul f4 [128, 8]
000000 68 50 c4 bd 74 c9 26 3e 71 d0 bd bd 92 8f 04 be
       -0.09585649 0.16287786 -0.09268273 -0.12945393
000010 45 a3 9d 3d 57 eb 05 3e 24 16 79 be 8b 40 06 3e
       0.07697157 0.13078056 -0.24324852 0.13110559
000020 82 64 38 3c 74 f7 8d 3d b1 18 95 3d 76 15 c1 3d
       0.011254432 0.069319636 0.072801 0.094279215
000030 b0 72 9f 3d a4 bc 35 3e 55 2d 88 bd d7 0c f8 3d
       0.07785547 0.17747742 -0.066492714 0.12111824
000040 85 f3 5f 3e 38 80 3a be 86 16 73 3d 70 0a ad bd
       0.21870239 -0.18212974 0.059347652 -0.084492564
000050 30 e5 d0 bd 93 27 12 be cf 0c 80 3e 9a 0e ed 3d
       -0.10199964 -0.14272909 0.25009772 0.11575051
000060 40 7a aa bd 14 dc 23 be 90 ae 20 be ab be 9b bd
       -0.083240986 -0.16001922 -0.1569159 -0.076047264
000070 22 e2 dc 3d 4e a8 0a bb d6 d2 03 be e3 1f 32 be
       0.10785319 -0.0021157446 -0.12873396 -0.17394976
000080 23 b9 43 3b 16 29 2d 3e 04 a8 a0 bd 85 89 0d be
       0.0029864989 0.16910204 -0.078445464 -0.13821991
000090 96 30 bd bd 0d 2a 67 3c 63 73 c7 3d 6a 68 0f be
       -0.09237783 0.014109147 0.09738805 -0.14004675
0000a0 f2 01 37 3e 8a e1 eb bd 91 d5 01 bd b7 95 28 3e
       0.17871836 -0.115176275 -0.031697813 0.16463362
0000b0 89 4d b2 bd 5d 64 39 be a1 58 2f bd cc 72 c0 3d
       -0.08706195 -0.18104692 -0.042809132 0.09396896
0000c0 e6 ed 59 be 2e ee 14 bd c1 d5 25 3e 7c c3 a7 3d
       -0.21282157 -0.03635996 0.16194822 0.081915826
0000d0 bc c1 06 be d1 e9 31 be f4 5f 07 bd 9e 18 65 bd
       -0.13159841 -0.1737435 -0.033050492 -0.05593168
0000e0 ed 30 05 bb 73 7a c3 3c 67 96 c3 3d 30 b0 e0 3c
       -0.0020323351 0.0238621 0.09550171 0.027427763
0000f0 ae b2 e8 3d 82 81 c5 3c 65 aa 85 be ea 35 55 3d
       0.113622054 0.024109606 -0.26106563 0.05205337
000100 5c db 52 be 86 26 8d 3c 13 3c a5 3d fb 73 d3 3d
       -0.20591491 0.017230283 0.08068099 0.10324856
000110 c9 62 2d be 8c 4c be 3d 6d 14 7a 3e 0d c4 4a be
       -0.16932215 0.09291944 0.24421854 -0.1980135
000120 25 7b 28 be af 47 95 3d 4f 9e eb 3d a0 60 0a 3d
       -0.16453226 0.07289063 0.11504804 0.033783555
000130 17 a5 9b 3c c4 9b 07 be c5 aa cb bd 66 86 39 3d
       0.01899962 -0.13243014 -0.09944681 0.045294188
000140 57 d7 15 3e 67 4f 79 be 0f 46 c7 bd 6c b0 91 bd
       0.14632927 -0.24346696 -0.097301595 -0.07113728
000150 8a e4 00 3e 4b de 8f 3c e9 2f 80 3e 4e d0 02 be
       0.1258718 0.017562052 0.25036553 -0.12774774
000160 48 d2 f7 bc 35 63 08 be e2 0e 3d 3e 49 d0 f4 bc
       -0.030251637 -0.13319094 0.18462709 -0.029884474
000170 52 f6 7b 3e 0a 7e 19 be 17 ef e8 bd bb bc 3f 3e
       0.24605682 -0.14989486 -0.11373728 0.18724339
000180 50 d3 1b 3e 54 f3 fa 3d 43 de 89 3d 47 68 84 be
       0.15217328 0.122534424 0.06731846 -0.25860807
000190 73 4d d6 bd 1e fb ff 3c ca 87 55 3e 1a 12 8d bd
       -0.10463991 0.031247672 0.2085258 -0.06888218
0001a0 ab df db bc ff 24 45 3c 45 7a 28 bc 81 e8 12 3e
       -0.026840052 0.012032746 -0.010283058 0.14346506
0001b0 04 cd b4 3d 00 47 46 be 6c e3 cb bd 83 44 2c 3e
       0.08828166 -0.19363022 -0.09955487 0.1682301
0001c0 4c 6e d1 bd 62 36 fc bd 76 62 c3 3c f0 ee 6a be
       -0.102261156 -0.1231506 0.02385066 -0.2294271
0001d0 a3 06 50 3e 5a 5f 7d bd 9a 4c 19 3e 6f ce f8 3d
       0.20315032 -0.061858512 0.14970627 0.12148749
0001e0 5b 38 57 3d 5c dd fd bb fe 22 a8 3d 03 68 65 3e
       0.05254398 -0.0077473354 0.08209799 0.22402959
0001f0 dd f1 49 3e fc 02 63 bd b5 f9 b1 bd 1b 60 ae 3d
       0.1972117 -0.055422768 -0.08690206 0.085144244
000200 6b 21 66 3e 40 12 2c 3e a1 85 30 3e 61 6c 39 3e
       0.22473685 0.16803837 0.17238475 0.1810775
000210 be 2f 5e 3e db a7 77 bd 90 9e 9d bc 6b 62 49 3e
       0.216979 -0.060462814 -0.019240648 0.1966645
000220 6b 3c 37 3e 21 f0 cb bd b2 6b 8d bd 02 a8 da bb
       0.17894141 -0.0995791 -0.06905307 -0.00667286
000230 ac f8 c3 bd 50 a8 59 3e 0b dd 27 be ff d8 ab bd
       -0.09568915 0.21255612 -0.16392915 -0.08390998
000240 84 7e 06 bd a7 23 58 bd d8 3c 3c bd 0a 99 af bd
       -0.0328355 -0.052768376 -0.045956463 -0.08574112
000250 16 ce ef 3d 85 ab 23 be 68 9f 41 3e ee 1c 3f 3e
       0.1170923 -0.15983398 0.18908465 0.1866338
000260 45 6e 38 be a5 bd 65 3d b3 d1 84 be ba 27 5e bd
       -0.18010814 0.056089062 -0.25941238 -0.054237105
000270 75 f1 63 3e 44 0e 7e 3c 80 e9 19 3c 62 b2 0f 3e
       0.22260077 0.015506331 0.00939405 0.14032891
000280 b1 66 92 bd 18 27 9f 3d 22 e1 9f bd c6 32 80 bd
       -0.07148493 0.077711284 -0.078066126 -0.06259684
000290 4c b8 0f be 2e b4 20 3e 96 0c ec bd b3 35 dd bd
       -0.14035147 0.15693733 -0.11525838 -0.10801258
0002a0 68 6d 07 3d b6 85 3f 3e 31 1b 95 bb b1 36 6b be
       0.033063322 0.1870335 -0.0045503606 -0.22970082
0002b0 e6 70 25 3e 4c 84 22 be 7e 7e 96 3d 5c a3 39 3e
       0.16156349 -0.1587078 0.07348345 0.18128723
0002c0 a2 ba c6 bd bc 19 9f 3d 67 2a 93 bd 98 c3 41 3d
       -0.09703566 0.0776858 -0.07185822 0.047305673
0002d0 6d 7c 96 bb 40 66 42 3e 3e f8 46 3d 59 6d 4d be
       -0.0045924694 0.18984318 0.048576586 -0.20061244
0002e0 08 92 10 be 75 20 21 be 58 42 19 be 21 60 58 be
       -0.14118207 -0.15735038 -0.14966714 -0.2113042
0002f0 68 d7 b5 3c ce 44 81 3d a3 d3 21 3e eb b5 68 bc
       0.02219744 0.063119516 0.15803389 -0.014203529
000300 de eb fe 3c a1 27 c1 3d e5 af 26 be 16 34 6c 3d
       0.03111833 0.09431387 -0.16278036 0.05766686
000310 99 40 6a bd 17 42 05 3e 18 c9 8d be df 5a 0d 3c
       -0.05719051 0.13013493 -0.27692485 0.008627622
000320 97 e1 12 3e 1e 8d 4c bd 35 7e 44 be ac 5a 13 3e
       0.14343868 -0.049939267 -0.19188769 0.14390057
000330 62 98 46 be d6 dd a8 bd 52 47 01 3e 60 a6 25 be
       -0.19394067 -0.08245437 0.12624863 -0.16176748
000340 be 91 47 3e 49 39 87 3d 4b 26 f7 3d 84 30 2e 3e
       0.1948919 0.06602723 0.12067851 0.17010695
000350 5f 3f 2c be b0 92 c9 3d 6e ac 22 3d da df 0e be
       -0.16821049 0.098424315 0.039715223 -0.1395258
000360 eb 70 c2 3d 71 0e 13 bc 14 b5 18 3e 80 c9 ae 3d
       0.09494194 -0.008975611 0.14912826 0.08534527
000370 34 70 53 3e c2 f3 d8 bb 80 00 35 be 2d 15 ba bd
       0.20648271 -0.006620855 -0.17675972 -0.0908607
000380 51 95 bb 3b b9 ab cf 3d 1a 0e cc bb 23 b2 65 3e
       0.005724587 0.10140175 -0.006227267 0.22431235
000390 d2 05 e2 3d 18 a1 be bc 4b 85 44 be b5 d7 33 3e
       0.110362664 -0.023270175 -0.19191472 0.17562754
0003a0 27 e2 3a 3d c0 f6 5e 3c 4e e2 75 bd c7 1f e4 bd
       0.045625832 0.0136086345 -0.060030274 -0.111388735
0003b0 13 7b 6a 3d 20 af 1f 3e 0c 7a 10 3e 97 9b 22 3e
       0.05724628 0.15594149 0.14109057 0.15879665
0003c0 54 c7 28 be 71 64 51 be 27 41 0f 3e f3 95 b3 3d
       -0.16482288 -0.20448472 0.13989697 0.08768835
0003d0 6b ff 1d 3e c5 ae 13 3e eb cd 34 bc f9 c8 00 be
       0.15429465 0.14422138 -0.011035423 -0.12576665
0003e0 40 3a a5 bd 54 15 86 3d 6a 07 45 bc c9 de ad bd
       -0.08067751 0.06547037 -0.012025693 -0.084897585
0003f0 ab ff d5 3c ff 3e 4c bc 48 60 03 3e 97 b6 21 be
       0.026122889 -0.012466191 0.12829697 -0.15792309

sequential_3/dense_13/MatMul f4 [64, 128]
000000 43 1d 42 3d 41 c0 c1 3c b5 74 86 bd e1 a4 4b be
       0.047391187 0.023651244 -0.06565229 -0.19887115
000010 61 b7 1c bd e9 5a 58 bd a8 2b b1 bd 74 79 07 bd
       -0.03826082 -0.052821074 -0.08650905 -0.03307481
000020 66 4a 0f be 77 3f 3e be c0 5a 02 3d ac 87 4d be
       -0.13993225 -0.18578897 0.031824827 -0.20071286
000030 f8 83 39 bd 33 6d 47 be 2d ce e5 3d d8 33 a6 bc
       -0.04529187 -0.1947525 0.112209655 -0.020288393
000040 c6 3f 36 be c7 9e 06 3e 24 87 e3 3c d5 00 9c ba
       -0.17797765 0.13146506 0.027774401 -0.0011902103
000050 a1 02 f3 bb e6 86 82 bd dd da 1f be 0f ec 6d 3c
       -0.007416085 -0.06373386 -0.15610833 0.014521613
000060 0a d5 83 bd 2d 6b cb 3d f4 2f 8a bd 57 c8 38 be
       -0.06437118 0.099325515 -0.067474276 -0.18045174
000070 c8 e6 23 bb 7b 40 9b 3c c2 d3 e3 bd 88 8a 7c 3d
       -0.0025009383 0.018951645 -0.11124374 0.06165555
000080 54 a3 bc 3d 97 9e 0c 3c 2a d8 47 3c a0 6a 85 be
       0.0921084 0.008582733 0.012197534 -0.2605791
000090 7a 4b b7 3d f3 2a 12 3e 10 4d b9 bc 1a 06 6f bd
       0.08949943 0.14274196 -0.022619754 -0.05835543
0000a0 e7 ab 0f 3d 8d 92 42 3e f7 3c b7 3d ec 4b 8d 3d
       0.03507605 0.19001217 0.08947175 0.068992466
0000b0 15 40 6a bd 70 76 ad bd e1 e8 ce 3d ba e3 25 be
       -0.05719002 -0.08469856 0.10103012 -0.16200152
0000c0 90 e7 43 3e b5 b2 2c 3e de aa 2d 3d 55 64 cb 3d
       0.19131303 0.16865046 0.04239928 0.09931246
0000d0 67 20 11 3d 43 c3 0c 3e 23 7c 18 3d 19 b0 fc bc
       0.035431292 0.13746361 0.03722776 -0.030845689
0000e0 96 5e 8f 3d f6 71 0d 3e 91 f4 51 3e a5 0d 0a 3d
       0.07000463 0.13813004 0.20503451 0.03370442
0000f0 45 e0 b2 3d 5a 16 01 be 74 b3 d8 bd 58 9d 07 3e
       0.08734182 -0.12606183 -0.10581103 0.13243616
000100 d3 d2 65 bb a1 07 11 3d fb 65 60 3d 66 2a 9a bc
       -0.0035068288 0.035407666 0.054784756 -0.018819045
000110 34 ce 9e 3d a2 2f 08 be 53 97 a6 bd be 13 9f 3d
       0.07754174 -0.1329942 -0.081343316 0.077674374
000120 f0 4b 1e bc 9d 2d 8b bc 00 2a da bc 92 20 e7 bd
       -0.00966166 -0.016989524 -0.026631355 -0.11285509
000130 95 1a d5 ba d7 c1 df 3d b4 42 b9 bd 5d 10 19 be
       -0.0016258532 0.10925644 -0.09045926 -0.14947648
000140 b5 08 11 3e f6 53 de bc f9 4b 19 bd e8 58 02 3e
       0.14163478 -0.027139645 -0.03742597 0.12729228
000150 64 70 8e 3c e6 e4 15 be 3b 7c 53 3e 35 24 79 bd
       0.017387576 -0.14638099 0.20652859 -0.060825545
000160 95 b3 9b bd df 71 94 3d ad d5 c6 bd f1 f2 84 bd
       -0.07602612 0.07248282 -0.09708724 -0.0649165
000170 af bf 07 be bb 26 85 bd 8e cc da bd ed 1d 73 bd
       -0.13256715 -0.06501528 -0.10683547 -0.05935471
000180 b4 69 fa 3d 91 03 8e 3d 1b 09 eb 3d b5 d7 53 bd
       0.122271925 0.06934274 0.11476346 -0.051719386
000190 81 ad 41 bd 2c 12 ec 3d e2 3f ac 3c 55 4c 9c 3d
       -0.047284607 0.115269035 0.021026555 0.07631747
0001a0 d9 e4 a1 3d 09 c9 b5 3d a0 3b 40 bd 70 37 0f be
       0.07904977 0.08876235 -0.046931863 -0.13985991
0001b0 83 c4 72 bd 89 7f a2 bd 4f 10 4a bd fd de 51 3d
       -0.05926944 -0.07934482 -0.04933196 0.05123805
0001c0 12 b4 b1 bd 43 0b c6 3c eb 03 2c 3e a0 63 69 bc
       -0.08676924 0.024175292 0.1679837 -0.014244944
0001d0 0d 12 df 3c 29 38 5d be 4f 04 85 3c d0 fb 31 3e
       0.027230287 -0.21603455 0.016237406 0.17381215
0001e0 88 e3 a9 ba bc 29 c8 bc 1a aa 8d bd 96 00 3e be
       -0.0012961486 -0.024433963 -0.0691721 -0.18554911
0001f0 e0 07 07 3e 88 f2 8c bb b5 47 08 3e dd 63 b1 3d
       0.13186598 -0.004301373 0.13308604 0.086616255
000200 c1 60 35 bd af af ea 3d f7 29 00 3e 92 d7 ca 3d
       -0.044281725 0.1145929 0.12516008 0.09904398
000210 a1 3a 0d be 91 92 b7 bc 3e 5c 30 be f2 d6 21 3e
       -0.13791896 -0.022408755 -0.17222688 0.15804651
000220 53 26 90 3c 7b d9 08 be 98 53 cb bd 3a 06 48 3d
       0.0175964 -0.13364212 -0.099280536 0.048834063
000230 75 52 2f bc 7f 0c 1d 3e 56 e3 c3 3c ba fd 0e be
       -0.010700812 0.15336798 0.023912113 -0.13963977
000240 a3 cd 02 3e 1e d3 d1 3c b1 1c 9f 3d 33 5c 48 3e
       0.12773757 0.025613364 0.07769144 0.19566421
000250 51 c2 0f bc ec 6d 6e 3d 82 2e 16 bb ae 11 8f 3c
       -0.008774356 0.0582103 -0.0022915904 0.017464485
000260 42 82 26 3d ad 0a 1f 3e 61 a3 a5 bd 24 58 ad 3d
       0.040651567 0.15531416 -0.08087803 0.08464077
000270 97 bb b4 bd fa a1 b0 3d 3d 99 2c bd 2f 7c 79 bc
       -0.088248424 0.086246446 -0.042138327 -0.015227362
000280 b6 15 61 3d 92 7c dc 3d f9 63 a7 3d d9 62 60 3c
       0.054952346 0.107659474 0.08173365 0.013695442
000290 c3 9e 20 be e8 54 19 be 09 9d d0 bd 48 34 20 3d
       -0.15685563 -0.14973795 -0.10186202 0.03911236
0002a0 ac 1c cc bd ad 06 0e be fc 3e d6 3d 79 07 90 bb
       -0.09966406 -0.13869734 0.10461232 -0.004395422
0002b0 5b 98 df 3d 81 ac fd bc ef a8 0f 3e fc 02 3a be
       0.109177314 -0.030966045 0.14029287 -0.18165201
0002c0 a5 a9 b9 3d c7 49 30 be e5 bd c6 bd 99 eb c2 3d
       0.0906556 -0.17215644 -0.09704188 0.09517593
0002d0 5b a6 01 3e 85 a8 bb 3d 55 6d 88 bd 6f 81 84 bd
       0.12661116 0.09163002 -0.066614784 -0.0647
0002e0 f7 36 0a 3e 4f bc 0a bc bd 72 2c 3e de d1 98 3d
       0.1349753 -0.008467748 0.16840644 0.07461904
0002f0 79 79 70 bd 44 12 9e bd 9c b0 1e 3e c2 36 5a 3e
       -0.058709595 -0.07718328 0.15497059 0.21309951
000300 7a eb 5b 3d 79 eb e2 bd 91 f6 e7 bd 45 39 60 3e
       0.053691365 -0.11080069 -0.11326326 0.21896847
000310 07 ca 27 3e 32 bc f0 bd 14 8e e3 3d b1 2f ca 3d
       0.16385661 -0.117546454 0.111110836 0.09872378
000320 bb 3b ae bd ec fc cf bd 35 67 9a bd 96 43 08 3e
       -0.085074864 -0.10155663 -0.075392164 0.13307032
000330 fb 20 07 3e a0 18 be bb 2b 6b 4a 3d d7 48 9b 3d
       0.13196175 -0.0058012754 0.04941861 0.075822525
000340 88 ba 8c 3d 30 57 d3 3d c2 d6 7f bd 0d 42 0b be
       0.068715155 0.10319364 -0.06246067 -0.13599415
000350 43 95 2f 3e c1 be 88 3d 1b 7f 0a be 37 f4 b5 b9
       0.17146783 0.066770084 -0.1352505 -0.00034704964
000360 15 54 69 3d 59 75 01 be fc 25 ee 3d 25 38 18 be
       0.056964952 -0.12642421 0.11628339 -0.14865167
000370 eb b0 3d 3e 65 af 07 3e c2 87 59 3e e5 d1 00 3e
       0.1852452 0.13250501 0.21243194 0.12580068
000380 ac 9e 20 be ba bb 24 bd 24 5d c1 3d b3 cc 4c 3e
       -0.15685529 -0.040218093 0.09441593 0.19999962
000390 db 98 a0 bb 37 0f 11 be 8b 83 1a 3d ae ec e8 bc
       -0.0049010343 -0.1416596 0.037723105 -0.02843317
0003a0 f0 ea cf bc e8 fa 30 3d 83 1a 32 3e 62 04 07 3c
       -0.025380582 0.043208033 0.17392926 0.008240791
0003b0 0b f0 b9 bd eb ef 88 bc d3 b4 7c bd 79 97 b0 bd
       -0.09078988 -0.016715964 -0.061695885 -0.08622641
0003c0 5d 3d 2e 3e d3 11 e7 3c 77 96 2a 3e f7 46 f8 3d
       0.17015596 0.028206741 0.1665896 0.121229105
0003d0 0d d1 2c 3e d7 5d bc bd bb 9d f2 3d 81 e3 21 3d
       0.16876622 -0.09197586 0.11846491 0.039523605
0003e0 af 3f 09 3e f7 86 1a 3e 9d b1 27 3e b7 8f 9c bd
       0.134032 0.15090548 0.16376348 -0.07644599
0003f0 ea 4b 4e be 40 85 58 3e 0f d1 f3 bc 85 8f 0f 3e
       -0.20146146 0.21144581 -0.029762773 0.14019592

sequential_3/dense_14/MatMul f4 [16, 64]
000000 2e 76 ea bd 40 40 ca bd 6c fd 09 3e 2c 4d e1 3d
       -0.11448322 -0.09875536 0.13475579 0.110010475
000010 1c 25 63 bd c4 6a 8b 3d d4 b2 7d bd 5c dd 69 bd
       -0.055455312 0.06807473 -0.061938122 -0.05709587
000020 d0 75 52 3d 90 be 36 be a8 17 34 bd dc d7 6e 3e
       0.051381886 -0.17846131 -0.043967873 0.23324531
000030 45 7e 0a be 80 d8 f1 3c 24 c1 f3 3d a3 14 33 be
       -0.1352473 0.02952218 0.11902073 -0.17488341
000040 1a 33 72 be 9e 49 80 be dc 0b 76 3e 5c 8c c8 3d
       -0.23652306 -0.25056165 0.24027961 0.097923964
000050 0a 83 0b 3e 28 72 03 be 78 ec 29 be 40 13 7f bc
       0.13624206 -0.12836516 -0.16594112 -0.015568554
000060 be d6 82 bd 7c ec 2b 3e 15 03 58 be ea 5e 43 3e
       -0.06388615 0.1678943 -0.21094926 0.19079176
000070 a8 dd 56 3d 93 99 12 be 00 a8 74 bb 9c 3f 10 be
       0.05245748 -0.14316396 -0.003733158 -0.14086765
000080 c0 46 a0 bc 44 4b 84 3d 50 2a 2c 3e 88 05 90 3d
       -0.019564986 0.06459668 0.16813016 0.07032305
000090 2c a9 a9 bd a6 b8 24 3e 5c e1 1f 3e 92 73 21 3e
       -0.0828422 0.16086063 0.15613312 0.15766743
0000a0 ea f1 40 3e d4 17 93 bd 78 aa 7b be 35 9e 5a be
       0.18842283 -0.07182279 -0.24576747 -0.21349414
0000b0 a6 c9 11 3e 12 ae 61 be 4a 47 fa bd a4 5a 42 3e
       0.14237079 -0.22039059 -0.122206286 0.18979889
0000c0 9c 1b 00 be 80 ac 6d 3e 60 18 ca 3c a8 0a 33 be
       -0.12510532 0.23210335 0.024669826 -0.17484534
0000d0 a8 7f 4e bd 6e 48 94 bd f9 c2 6f be 5e f7 da bd
       -0.05041471 -0.07240377 -0.2341422 -0.10691713
0000e0 45 1a 65 be c8 57 79 3e 68 91 4f be 44 49 27 be
       -0.22373302 0.24349892 -0.20270312 -0.16336542
0000f0 4c 1a 53 be cc 79 f8 3d aa ca 0e 3e c8 ca ca bc
       -0.206155 0.12132606 0.13944498 -0.024754897
000100 d3 7a 16 be 30 39 f7 3d e5 18 d1 bd 8f d1 42 3e
       -0.14695291 0.120714545 -0.102098264 0.19025253
000110 fe 1a 1b 3e 40 e4 57 bd b5 61 6a be dc 16 10 3e
       0.15147015 -0.05270791 -0.22888835 0.1407122
000120 56 fe 5f bd 93 7e e5 bd cc db 22 be 87 9d 88 bd
       -0.054685913 -0.11205783 -0.15904158 -0.06670671
000130 9b 82 ea bd 02 dd ce 3d 6c 97 a2 3d c8 80 23 be
       -0.11450692 0.10100748 0.07939038 -0.15967095
000140 2a f1 77 be b9 b1 33 3e 0d 0e e3 3c a3 65 09 3d
       -0.2421309 0.17548265 0.02771666 0.033544194
000150 7d ea dc 3d e9 3f 20 be eb 6b b1 3c bd 41 80 3e
       0.107869126 -0.1564938 0.021657905 0.25050154
000160 14 a9 99 3e e2 b0 97 3e 09 fe 48 bd 34 98 f2 bd
       0.3001181 0.29627138 -0.04907039 -0.11845437
000170 0a 66 99 3e 2c 96 83 be 52 2d e6 3d 6f 5c 23 3d
       0.29960662 -0.2570051 0.11239113 0.039883073
000180 35 e6 15 3e 14 9a 67 3e 54 6f 81 3e 4d 10 38 3e
       0.14638598 0.2261737 0.2528025 0.17974968
000190 7b e7 aa bc a2 fd 96 be f9 f8 0e 3e 48 a2 5f be
       -0.020862332 -0.2949038 0.13962163 -0.21839249
0001a0 5a e4 01 3e a6 7b c9 3d 8a fe 61 be 16 8d fb bd
       0.12684765 0.09838037 -0.22069755 -0.122827694
0001b0 89 76 12 bd 5d ad 5f 3d 46 53 63 be 0e df 0e 3e
       -0.035757575 0.05460869 -0.22199735 0.13952276
0001c0 ec 02 6f 3d bb e3 1e bd 74 dc b2 bc f2 56 4f 3d
       0.058352396 -0.0387914 -0.021833636 0.050620027
0001d0 68 d3 1a 3c 16 82 03 3e 83 b2 87 3e 46 b5 78 3e
       0.009449817 0.12842593 0.2650338 0.242879
0001e0 36 e9 4a be 15 bc 20 3e 3c 4a 64 be c3 88 6d be
       -0.19815525 0.15696748 -0.22293943 -0.23196702
0001f0 a2 67 1b bd be 73 99 3e 91 a5 27 be 22 88 da 3d
       -0.03794063 0.29971117 -0.16371752 0.106704965
000200 d7 8e 14 bd ff 12 5b be a4 e4 95 3c 44 af ab 3d
       -0.036269035 -0.21393965 0.0182975 0.08383039
000210 ae f9 d0 3c e9 52 32 be 85 46 e2 bd 72 cd 64 3e
       0.025509682 -0.1741444 -0.11048607 0.22343996
000220 60 8f 2b 3e c0 c4 94 be 73 9c 35 3e ab c7 31 3e
       0.16753912 -0.29056358 0.17735462 0.17361324
000230 60 ba 86 3e a8 39 33 3d 40 95 14 3e ec 54 87 be
       0.26314068 0.043756157 0.1451006 -0.26431978
000240 4b 35 2e 3e bf 28 36 3e 8c c1 83 3e f1 76 15 be
       0.17012517 0.17788981 0.25733602 -0.14596154
000250 08 dd 7d 3e 2b df 58 be 93 9a 48 be dc 6c 97 3a
       0.24791348 -0.21178882 -0.19590215 0.0011552828
000260 63 6e 3b 3e 1d a6 8b 3e 5b 76 6a be ba d5 2c 3e
       0.18303828 0.27275172 -0.22896712 0.16878405
000270 30 7e 7d 3e 1b 10 bc bd ec 8a 0d 3e 37 cc 62 3e
       0.24755168 -0.091827594 0.13822526 0.22148214
000280 7b 9c 8e be a5 60 31 bd af 4b 77 3d f9 15 92 3b
       -0.2785376 -0.043305058 0.060374912 0.0044581858
000290 6e 9e 92 3e 1c e6 92 3d 1d de 28 3c cb a6 1f be
       0.28636497 0.07172796 0.010306862 -0.1559097
0002a0 35 61 fc bd 19 59 4c 3e 5b c1 f4 3d ab 3c e0 bd
       -0.12323228 0.19955863 0.11950942 -0.109490715
0002b0 1d 35 f9 bd 45 13 ba bc b2 c1 21 be 42 24 53 bd
       -0.12168334 -0.022714267 -0.15796545 -0.05154825
0002c0 e5 8f 16 be 8f 47 37 3e ac 09 82 3e 00 25 60 ba
       -0.14703329 0.17898391 0.25398004 -0.00085504353
0002d0 e6 5a 45 3e a3 4d 3c 3d 6b d5 6d be 0c 29 70 be
       0.19272956 0.045972478 -0.23225944 -0.23453158
0002e0 88 49 0c be 3e 01 33 be a8 61 d7 bd 09 28 58 3d
       -0.13699925 -0.17480943 -0.10516673 0.052772556
0002f0 e3 79 91 3e df 9f 6c 3e b4 94 c7 3c f9 03 7b 3e
       0.28413305 0.23107861 0.0243629 0.24513234
000300 e5 77 52 3d a4 03 21 be 49 dd 46 3e cb f1 28 3e
       0.05138387 -0.15724045 0.19420351 0.16498487
000310 d9 1f 4e be 09 64 b1 3a 36 5c 3d be 4e 62 7b be
       -0.20129336 0.0013533841 -0.18492207 -0.24549219
000320 f2 7e b7 3d 7c 86 3d 3e 27 9c eb bd 3c 0f 63 be
       0.0895976 0.18508333 -0.11504393 -0.2217378
000330 64 ee 7e be d7 f6 85 3e 54 9e fe bc 30 61 b5 3d
       -0.24895626 0.26164886 -0.031081356 0.08856428
000340 29 85 4d 3e cd 6c 0d be 7c 71 40 3e 0a 27 17 be
       0.20070328 -0.13811035 0.18793291 -0.14760986
000350 83 6e a0 3c 7a 9b e9 3c 8f 70 6a bd 77 8a 60 3d
       0.019583946 0.02851652 -0.05723625 0.05481955
000360 94 b4 d2 bd fb 63 29 be 88 27 11 3e 64 3c 10 be
       -0.10288349 -0.16542046 0.14175236 -0.14085537
000370 1d db d4 bd 5a e6 35 3e 64 b8 89 be 41 08 75 bd
       -0.10393355 0.17763653 -0.2689849 -0.059822325
000380 db d9 f8 3d f6 f7 42 3e 64 9b c3 3d dd 13 0e be
       0.12150928 0.19039902 0.09551123 -0.13874765
000390 ab 83 0c 3e 22 c3 fc 3c b3 a5 5e be 77 eb 2f 3e
       0.13722102 0.030854765 -0.21742897 0.17179666
0003a0 fe bc 2e 3e 8e 2a 4f 3e 72 97 eb 3d b9 ef 04 be
       0.17064282 0.20231077 0.11503495 -0.12982072
0003b0 f4 a5 8c 3d 93 06 85 3d 06 8f e1 3d ff 79 4f be
       0.068675905 0.064953946 0.11013608 -0.20261382
0003c0 54 20 32 3e 14 2f 69 3e 34 c2 55 3e 3b ef 3e 3d
       0.17395145 0.22771865 0.20874864 0.046614867
0003d0 86 4f ba 3d af 25 c3 3d 60 bf 68 be a6 e5 49 be
       0.09097199 0.09528672 -0.22729254 -0.1971651
0003e0 94 f3 93 bc 7b 92 65 be 1c b2 1d be fa b5 8a be
       -0.018060483 -0.22419159 -0.15399975 -0.27091962
0003f0 6f f6 58 be 08 5c 83 3e dd 0d 2c be a4 64 d0 bd
       -0.21187757 0.25656152 -0.16802163 -0.10175446

sequential_3/dense_15/MatMul f4 [1, 16]
000000 24 26 f0 3e 4c 96 b0 3e a0 31 b6 3e b5 a1 2a 3c
       0.469041 0.34489667 0.35584736 0.0104145305
000010 5c bb 22 bf b4 9b 58 be 30 ac de 3e d8 62 12 be
       -0.6356714 -0.21153146 0.43490744 -0.14295518
000020 4d 73 f9 be 6e d0 48 be 00 fe a0 3c 74 7b c9 3e
       -0.4872078 -0.1961076 0.019652367 0.39352
000030 21 a3 97 3d 14 5b 17 3f f7 a2 f6 be 1a 81 33 3e
       0.07404161 0.5912335 -0.48171207 0.17529717
